backend_ai/models/multivae.onnx (onnx, 182444 bytes, 8 tensors)

encoder.1.weight f4 [300, 50]
-0.14668575 0.122771166 -0.0068606925 0.20123579 -0.05007596 -0.042131744 -0.053375103 -0.120110065
0.0343414 0.118740804 -0.045634147 -0.088023886 0.05987364 0.0085100895 0.09890548 0.13035464
-0.03528853 -0.08829817 -0.099955186 -0.098778084 0.08927384 0.048319682 0.11642587 0.03862097
-0.10112095 -0.15089644 0.16024731 -0.05433869 0.02305481 -0.07135496 0.099124625 0.067002274
-0.0044969036 -0.101605006 0.045896675 -0.03511429 0.040369354 0.06698545 -0.009498195 -0.08873722
-0.059957694 -0.05300756 0.12983522 0.014863841 0.14982402 0.14260212 -0.13303931 0.08328127
0.03738173 0.034735657 0.0985404 0.12748583 -0.06023959 0.0009989524 -0.047216713 -0.10539534
-0.072530925 0.004540443 -0.07700092 -0.047947 -0.09977908 0.057313822 -0.082741626 0.058698703
-0.026942305 -0.0800729 0.14669003 -0.028113648 -0.10611487 -0.06810608 0.02751751 -0.06493223
0.11294858 0.13833232 0.13968845 0.042878 -0.11317646 -0.09743808 0.11641753 0.048933707
-0.11637826 0.0701122 -0.094382055 -0.104646586 -0.15492816 -0.01834516 -0.064738646 0.14037359
0.103861555 -0.103762686 0.1264709 0.050912157 0.17545967 0.1871525 -0.082343146 -0.02640731
-0.005239693 -0.13172202 -0.041090697 0.16866942 -0.022881415 -0.09149582 0.16238002 -0.03604511
0.05269715 0.15409732 -0.031172086 -0.10408857 0.0024819989 -0.008500777 0.0014409256 -0.15528595
0.03155733 0.0954213 -0.11201349 -0.120594725 -0.029320825 -0.08931723 -0.04781025 -0.097768515
-0.041589484 -0.06411261 0.08601848 0.051453922 0.084370084 -0.13988315 -0.13880783 0.08764615
0.16068509 0.072442554 -0.07123689 -0.02148851 0.053071298 -0.033466835 -0.0013851986 -0.034899954
-0.15925394 -0.071925834 0.08207216 0.02210887 0.09580036 -0.05285188 0.03982521 0.035224278
-0.10027557 -0.10212431 0.06847829 0.10745755 -0.09627423 0.10698998 0.18544102 -0.11657866
0.031172462 0.020239642 0.17559153 0.10119433 0.08184236 0.061334576 -0.02504282 -0.13731948
-0.07355689 -0.12696719 0.1284487 0.17925914 0.06352681 0.09321504 -0.09351824 -0.17858346
-0.102225035 -0.04165047 -0.111858085 -0.0010536691 -0.052532863 -0.14842017 0.12739056 0.16877854
-0.17415337 -0.06592433 -0.08804503 -0.06479171 0.030728415 0.002423529 -0.12169526 -0.034518283
-0.020123964 -0.094514474 -0.03989255 -0.15449601 -0.017762735 -0.15307204 -0.09760932 0.03285089
0.09205385 0.05835834 0.0042628255 0.06936731 0.19105585 -0.07245257 -0.014153358 -0.058623746
0.13071564 0.17136663 -0.14606316 -0.06863557 0.109971926 0.079983436 0.1520839 -0.0702941
-0.023853336 -0.08452045 -0.0826853 -0.02060306 0.07424195 0.14139254 0.06104727 -0.063487224
0.13368441 0.094479896 -0.047234934 0.1368057 0.14748351 -0.09851238 0.14381495 -0.053699125
0.101286456 -0.085275754 0.12519968 -0.040205102 -0.16653611 -0.15608951 0.04687361 -0.039810557
-0.15984772 0.17655693 0.105270706 0.1430143 0.15149657 -0.008710676 0.010184196 -0.04664316
-0.14587805 -0.10224542 0.17281665 0.16215867 -0.08824565 -0.043711685 0.098650455 0.10601298
-0.0018260406 0.02608291 0.17190298 0.07082138 -0.052376214 -0.12388748 0.010728466 0.09294575
00000000: ca34 16be 736f fb3d a9cf e0bb c110 4e3e
00000010: 731c 4dbd 5692 2cbd da9f 5abd 44fc f5bd
00000020: 91a9 0c3d 612e f33d dfea 3abd de45 b4bd
00000030: 103e 753d e76d 0b3c f58e ca3d b07b 053e
00000040: b58a 10bd acd5 b4bd 4eb5 ccbd 2a4c cabd
00000050: 34d5 b63d dcea 453d b070 ee3d 0631 1e3d
00000060: 8018 cfbd 9984 1abe df17 243e 3f92 5ebd
00000070: 71dd bc3c 8d22 92bd da01 cb3d 7d38 893d
00000080: c35a 93bb 4916 d0bd 27fe 3b3d 00d4 0fbd
00000090: 565a 253d ab2f 893d 519e 1bbc dcbb b5bd
000000a0: 3396 75bd 751e 59bd 86f3 043e 7887 733c
000000b0: 786b 193e 4a06 123e 753b 08be 5f8f aa3d
000000c0: 961d 193d fa46 0e3d 8dcf c93d a58b 023e
000000d0: cabd 76bd 48ef 823a 5066 41bd 83d9 d7bd
000000e0: 188b 94bd ffc7 943b a9b2 9dbd 1364 44bd
000000f0: f958 ccbd e6c1 6a3d 7174 a9bd 0d6e 703d
00000100: 1cb6 dcbc 43fd a3bd e935 163e 984e e6bc
00000110: c152 d9bd 337b 8bbd 676c e13c 30fb 84bd
00000120: 9651 e73d fda6 0d3e 7d0a 0f3e d7a0 2f3d
00000130: 0fc9 e7bd 9e8d c7bd 506c ee3d b66e 483d
00000140: ba57 eebd fc96 8f3d 614b c1bd f350 d6bd
00000150: 7da5 1ebe 9748 96bc b295 84bd 18be 0f3e
00000160: 5eb5 d43d 8881 d4bd 9681 013e 4489 503d
00000170: b3ab 333e e8a4 3f3e 86a3 a8bd 2554 d8bc
00000180: bbb1 abbb 23e2 06be b84e 28bd adb7 2c3e
00000190: ce71 bbbc 2962 bbbd f346 263e 0aa4 13bd
000001a0: f7d8 573d b0cb 1d3e 9a5c ffbc 632c d5bd
000001b0: 08a9 223b d846 0bbc 71dd bc3a 4803 1fbe
000001c0: 4242 013d 3e6c c33d 5467 e5bd 5efa f6bd
000001d0: 3a32 f0bc f4eb b6bd aed4 43bd dc3a c8bd
000001e0: bc59 2abd 794d 83bd 752a b03d 59c1 523d
000001f0: 39ca ac3d 873d 0fbe a423 0ebe d37f b33d
00000200: a28a 243e c35c 943d a6e4 91bd ac08 b0bc
00000210: 4a61 593d 8514 09bd 8d8f b5ba 41f3 0ebd
00000220: 7713 23be da4d 93bd 7315 a83d a91d b53c
00000230: fb32 c43d 377b 58bd c21f 233d 5547 103d
00000240: 475d cdbd 8d26 d1bd 593e 8c3d b412 dc3d
00000250: 6c2b c5bd 901d db3d 40e4 3d3e cbc0 eebd
00000260: 645d ff3c 9bcd a53c 44ce 333e f93e cf3d
00000270: f89c a73d f739 7b3d 9a26 cdbc 7a9d 0cbe
00000280: ffa4 96bd b003 02be 0e88 033e b58f 373e
00000290: 581a 823d 87e7 be3d 7e86 bfbd 95de 36be
000002a0: 5c5b d1bd af99 2abd da15 e5bd 451b 8aba
000002b0: b32c 57bd 75fb 17be ac72 023e 48d4 2c3e
000002c0: 4355 32be 5603 87bd f450 b4bd 84b1 84bd
000002d0: 28ba fb3c 12d4 1e3b 5d3b f9bd 0b63 0dbd
000002e0: 03db a4bc ce90 c1bd 5f66 23bd 3434 1ebe
000002f0: 2883 91bc ebbe 1cbe 65e7 c7bd a88e 063d
00000300: bb86 bc3d 2809 6f3d 2caf 8b3b 7310 8e3d
00000310: 25a4 433e 0362 94bd 7ce3 67bc 741f 70bd
00000320: 52da 053e bc7a 2f3e 9591 15be ce90 8cbd
00000330: f638 e13d 5bce a33d e2bb 1b3e 5af6 8fbd
00000340: 1268 c3bc 0f19 adbd e956 a9bd c0c7 a8bc
00000350: 2a0c 983d 35c9 103e b40c 7a3d 9705 82bd
00000360: 91e4 083e ad7e c13d 6b79 41bd cb16 0c3e
00000370: eb05 173e dcc0 c9bd 3a44 133e 9df3 5bbd
00000380: 466f cf3d 0ea5 aebd 5834 003e 1bae 24bd
00000390: 7188 2abe eed5 1fbe 8bfe 3f3d 6510 23bd
000003a0: 1faf 23be 57cb 343e 2b98 d73d 5772 123e
000003b0: eb21 1b3e 39b7 0ebc 9ddb 263c e60c 3fbd
000003c0: 0e61 15be 0c66 d1bd d9f6 303e ec0c 263e
000003d0: 23ba b4bd 060b 33bd 4009 ca3d 551d d93d
000003e0: c157 efba d4ab d53c 5607 303e cd0a 913d
000003f0: 7188 56bd b8b8 fdbd 73c6 2f3c 575a be3d

encoder.1.bias f4 [300]
0.0034826596 0.16425759 -0.06667308 0.12679477 0.04458641 -0.07113548 0.083407186 0.091840886
0.18400766 -0.056983676 0.0153979575 0.1438103 0.13507695 -0.00853261 -0.056614198 0.16814123
-0.07839493 0.079114325 0.08944219 0.1399668 0.07966559 0.15747255 0.17219143 -0.04206242
0.109181605 0.118739806 0.057711177 0.18473528 0.03150721 -0.08337329 0.05843467 0.13486221
-0.08944086 0.09838661 0.018054899 -0.068712376 -0.07142582 -0.01209591 0.00823141 -0.008551592
-0.06722268 0.052650847 0.08070833 0.15920196 0.069696516 0.091300495 0.052091885 0.089037344
0.060376205 0.1946648 -0.01422946 0.006924924 0.18635345 0.019361835 0.0972626 0.01173543
0.005344582 0.1352446 0.08781481 0.14263235 0.15429163 0.09433023 0.1250574 -0.02769046
0.08394754 -0.01860256 -0.021549504 0.121015266 0.16323903 -0.015795853 -0.057059493 0.011945939
0.101088814 0.114169635 -0.06575626 0.1217028 0.14200667 0.09376094 0.05126012 0.11737681
0.17312814 0.072238445 -0.010834461 0.057814837 0.061745998 -0.043329637 0.0061687855 -0.06970372
-0.028411794 0.1263842 0.09803418 -0.01494656 -0.08323907 0.03100749 -0.068018936 0.005936929
0.041570056 0.14858574 0.091789134 0.10432861 0.09937274 0.072790995 0.19605717 0.049271442
0.1618239 0.16992134 0.16006413 0.15165453 -0.025280861 0.10496127 0.0059387297 0.09826989
0.08719917 -0.0020029568 0.034939095 0.10212835 0.071033716 0.041941743 0.019150112 -0.015067586
0.16625683 0.045365002 -0.015237399 0.002980334 -0.06774245 0.1901902 0.11445419 0.1521296
0.07941791 0.023192646 -0.063169174 -0.057155743 -0.029997539 -0.039440244 -0.0025586223 0.17329904
0.103417344 0.13522702 0.0031400824 -0.075991146 0.09514742 0.062617175 -0.044401247 -0.05791042
0.15621845 0.0896518 0.11318019 -0.026285341 0.08545412 -0.0625207 0.16230313 -0.026282607
0.04536526 -0.057845447 -0.06871087 -0.03904266 0.094101034 -0.020445786 -0.058549043 0.084935494
0.031819638 0.033439264 0.09484027 0.10208242 0.14846432 -0.08785794 0.07617124 0.16998895
-0.01728289 0.14741375 -0.033430215 0.048545234 -0.045262553 0.015730703 0.034578044 0.09586729
0.06234472 0.15818049 0.014789367 0.18043244 0.053769566 0.044056326 0.16274709 0.123485625
0.16845626 0.03599954 0.03964159 0.17588434 0.12655966 0.13203433 -0.030715628 -0.03461809
0.15500261 0.17366754 0.12486218 -0.021145111 -0.058648046 0.06479889 0.057907905 0.031803094
-0.008619147 0.06022785 0.080401905 0.052234337 0.035945494 0.012487731 0.101535775 -0.06048244
0.14286402 -0.016632937 -0.014307313 -0.049870346 0.096489534 0.17165351 -0.051114894 0.10403773
0.0765772 -0.08307572 0.0127551975 0.008570021 0.0849705 0.17690237 -0.084351525 0.09638213
0.16475888 -0.035717856 0.020993788 0.13491486 0.0834872 0.12545829 0.1455685 0.08551591
-0.042172085 0.013533183 0.09965858 0.018859562 0.045129143 -0.053499974 0.08611092 -0.022972533
0.075522706 0.029807994 0.032850873 -0.042741727 -0.04716722 0.042173166 -0.04041958 -0.07999466
-0.020794896 0.14579038 -0.0321631 -0.005954286 -0.053328525 -0.018142404 -0.02288648 0.03741086
00000000: 553d 643b 2433 283e e58b 88bd 7dd6 013e
00000010: 3da0 363d 7baf 91bd 63d1 aa3d 1317 bc3d
00000020: 816c 3c3e b767 69bd b747 7c3c 0243 133e
00000030: 9d51 0a3e 5ccc 0bbc 4ae4 67bd 372d 2c3e
00000040: 858d a0bd b106 a23d 782d b73d 7553 0f3e
00000050: b627 a33d 7c40 213e f352 303e a549 2cbd
00000060: 9b9a df3d db2d f33d 8e62 6c3d 3f2b 3d3e
00000070: b40d 013d 9ebf aabd 3159 6f3d 5219 0a3e
00000080: c52c b7bd eb7e c93d dee7 933c 13b9 8cbd
00000090: b347 92bd ec2d 46bc 09dd 063c fa1b 0cbc
000000a0: 0bac 89bd 6aa8 573d 694a a53d d705 233e
000000b0: 0cbd 8e3d c1fb ba3d 4d5e 553d 3659 b63d
000000c0: 0a4d 773d 3656 473e ae22 69bc 79ea e23b
000000d0: 70d3 3e3e b69c 9e3c 9d31 c73d f645 403c
000000e0: 9a21 af3b 8f7d 0a3e 40d8 b33d 370e 123e
000000f0: a0fe 1d3e 3530 c13d 0c0f 003e 1bd7 e2bc
00000100: b0ec ab3d 6564 98bc 9688 b0bc dad6 f73d
00000110: 2228 273e 4e66 81bc 37b7 69bd e6b8 433c
00000120: a707 cf3d c5d1 e93d 38ab 86bd 513f f93d
00000130: 326a 113e bc05 c03d 22f6 513d 4163 f03d
00000140: 8148 313e c0f1 933d 0683 31bc 40cf 6c3d
00000150: 5fe9 7c3d 6b7a 31bd 8623 ca3b d3c0 8ebd
00000160: dabf e8bc dc6a 013e 25c6 c83d 6be2 74bc
00000170: 3f79 aabd 6b03 fe3c 834d 8bbd 928a c23b
00000180: 5d45 2a3d dc26 183e f1fb bb3d 3daa d53d
00000190: ef83 cb3d 7213 953d 36c3 483e dad0 493d
000001a0: 2ab5 253e dcff 2d3e dae7 233e 534b 1b3e
000001b0: cf19 cfbc eff5 d63d ad99 c23b b941 c93d
000001c0: 7a95 b23d 0a44 03bb 4c1c 0f3d ab28 d13d
000001d0: 207a 913d 1bcb 2b3d b2e0 9c3c 09de 76bc
000001e0: 3b3f 2a3e a7d0 393d 49a6 79bc b551 433b
000001f0: 8ebc 8abd 38c1 423e f566 ea3d ddc7 1b3e
00000200: dba5 a23d 81fe bd3c d75e 81bd 241c 6abd
00000210: 66bd f5bc 188c 21bd 8fae 27bb 4e75 313e
00000220: 79cc d33d f478 0a3e d7c9 4d3b 3fa1 9bbd
00000230: a7dc c23d 6f3d 803d 15de 35bd 7a33 6dbd
00000240: bbf7 1f3e 5d9b b73d 04cb e73d 5b54 d7bc
00000250: 9202 af3d da0a 80bd cb32 263e 9f4e d7bc
00000260: ecd0 393d 59ef 6cbd 49b8 8cbd 32eb 1fbd
00000270: 0bb8 c03d ec7d a7bc 1fd1 6fbd a9f2 ad3d
00000280: 4f55 023d 9cf7 083d 9e3b c23d 9610 d13d
00000290: 0807 183e ddee b3bd abff 9b3d 9511 2e3e
000002a0: d994 8dbc a1f3 163e 1fee 08bd 5ed7 463d
000002b0: 3a65 39bd addd 803c b5a1 0d3d 1256 c43d
000002c0: 2d5d 7f3d 11fa 213e 1a4f 723c 48c3 383e
000002d0: 7a3d 5c3d 6874 343d 2ca7 263e 08e6 fc3d
000002e0: cc7f 2c3e 4174 133d 385f 223d 061b 343e
000002f0: db98 013e 0234 073e 579f fbbc b3cb 0dbd
00000300: 01b9 1e3e e7d5 313e beb7 ff3d 8338 adbc
00000310: ef38 70bd 48b5 843d d730 6d3d f643 023d
00000320: 5337 0dbc 7ab1 763d c1a9 a43d acf3 553d
00000330: 953b 133d 5799 4c3c fdf1 cf3d 6fbc 77bd
00000340: f24a 123e cc41 88bc 3869 6abc d944 4cbd
00000350: 4e9c c53d f0c5 2f3e da5d 51bd bc11 d53d
00000360: 82d4 9c3d 9a23 aabd 2dfb 503c 4669 0c3c
00000370: 0305 ae3d e525 353e 7ec0 acbd ff63 c53d
00000380: 8db6 283e e34c 12bd 2afb ab3c 1f27 0a3e
00000390: 56fb aa3d 2378 003e e90f 153e f722 af3d
000003a0: a3bc 2cbd 49ba 5d3c cc19 cc3d 5e7f 9a3c
000003b0: 56d9 383d ca22 5bbd ec5a b03d e530 bcbc
000003c0: a6ab 9a3d e52f f43c a38e 063d f311 2fbd
000003d0: 6a32 41bd c5bd 2c3d 008f 25bd 3ed4 a3bd
000003e0: 0f5a aabc 134a 153e 74bd 03bd 2c1c c3bb
000003f0: 036f 5abd 619f 94bc 6d7c bbbc 213c 193d

encoder.3.weight f4 [32, 300]
0.024420543 -0.060905717 -0.016836524 0.042178728 0.08687144 0.01934749 -0.029703403 -0.024437103
0.10322772 0.022995742 0.008326996 0.025739398 -0.09079277 -0.04835662 0.05431889 -0.03197201
0.0006962304 -0.06733284 0.076215476 -0.012698007 0.048545983 -0.10712156 -0.04114667 -0.016120289
-0.090778485 -0.016465612 0.0055740983 -0.09429921 -0.092683844 -0.085900575 0.029010048 0.04370147
0.046988532 -0.035113443 -0.05860522 0.014024494 0.052860513 -0.095675826 0.086716406 -0.10292843
0.06840908 -0.0026439284 0.09016793 -0.014338315 0.021390246 -0.0024821602 -0.010748746 -0.003110587
-0.009629128 -0.0013231663 -0.061651003 -0.021237034 0.06088349 -0.04335149 -0.057864342 0.070822455
-0.00039716286 -0.024727382 0.056343377 -0.07912854 -0.047281098 -0.04244669 -0.00447219 0.021484677
0.051060863 0.09862285 0.059606418 -0.051921614 0.08488365 0.010269982 -0.022885611 -0.009424975
-0.02814963 0.04033202 -0.09967701 0.0049835932 0.0003557145 -0.032727722 0.03587689 0.056234166
-0.003995233 0.07641783 0.073644884 -0.086570606 -0.06893399 -0.033501312 -0.00040325662 0.025090752
0.0038378667 -0.05876871 0.071766675 -0.04369974 0.065648906 -0.015297221 0.09274048 -0.019587725
-0.041092914 0.04214131 0.0724286 -0.06628607 -0.061493102 -0.027866958 0.08273832 0.0017770008
0.07570094 -0.080595 0.04253396 -0.108402945 0.00038559097 -0.017673787 0.014261544 -0.08458202
-0.011704063 0.090752125 -0.061985537 -0.002133711 -0.028682489 0.09626015 -0.03590992 0.06895916
0.06894377 -0.0929288 -0.09341636 0.05152248 0.09482488 0.025714241 -0.023847535 -0.06724669
-0.070047684 -0.03155165 0.035020143 -0.017410235 0.08471388 0.038005274 0.08825995 -0.010833747
0.055329327 0.026717227 0.051008698 0.016993213 0.06804934 0.08946238 -0.004689074 -0.02502164
0.08661213 -0.06764189 -0.086333975 0.054809924 -0.055184934 0.05616333 -0.0422689 -0.09139384
0.060503423 0.06900018 -0.088119954 0.044437565 -0.0521473 0.067720674 0.030260433 -0.02024689
0.018791074 0.07158259 0.047426287 0.054941174 0.003381866 -0.05132329 -0.057910834 0.08986039
0.09616837 -0.015352797 -0.004474086 0.024055932 -0.0817197 0.06392214 0.07067832 0.059893586
0.09346476 0.08959952 -0.045660626 -0.054067113 0.06820208 0.08157302 0.086714104 -0.089264736
0.09621992 -0.09247798 -0.036758997 -0.0842667 0.10228463 -0.06293405 0.05386095 0.07877427
-0.04328308 -0.09686836 -0.05725554 -0.020811882 0.0018414529 0.058246005 -0.062079288 -0.027237868
0.0009698279 -0.0064510587 -0.049250215 0.106324576 -0.042105045 0.032096043 -0.034649827 -0.005611825
-0.029925268 0.046499204 -0.024720047 0.09443599 -0.078937866 0.045564327 -0.08490792 -0.074077666
0.07630492 -0.030613717 -0.0355992 0.020570247 -0.074432634 -0.044622958 -0.04650248 0.00033568658
-0.029077535 -0.02024687 0.00030110963 0.0018561939 0.045277487 0.05945583 0.019807694 -0.048111204
-0.092500925 -0.03751599 0.010743132 0.09205969 -0.06039384 -0.036445495 0.0059725195 0.018958537
0.012874354 0.09245672 0.0725519 0.0048458357 -0.09088757 0.076562636 -0.042754233 0.07047705
-0.09149324 -0.09046192 -0.019003805 -0.04563105 0.041893218 -0.067096196 0.09292989 0.020106478
00000000: 970d c83c 4678 79bd c0ec 89bc 9ac3 2c3d
00000010: a7e9 b13d a17e 9e3c 8d54 f3bc 5230 c8bc
00000020: 0e69 d33d 9161 bc3c f46d 083c 6edb d23c
00000030: 8ff1 b9bd 9711 46bd 7c7d 5e3d 15f5 02bd
00000040: 3b83 363a cde5 89bd dc16 9c3d 4d0b 50bc
00000050: 27d8 463d 8c62 dbbd 6989 28bd b20e 84bc
00000060: 12ea b9bd e4e2 86bc eda6 b63b f21f c1bd
00000070: 07d1 bdbd a4ec afbd 7ba6 ed3c 5000 333d
00000080: 0c77 403d 1dd3 0fbd 070c 70bd fec6 653c
00000090: 4484 583d b0f1 c3bd 5f98 b13d 24cc d2bd
000000a0: 0f1a 8c3d c245 2dbb f7a9 b83d 41eb 6abc
000000b0: 993a af3c bdab 22bb 821b 30bc fdda 4bbb
000000c0: 7dc3 1dbc 186e adba c385 7cbd 4af9 adbc
000000d0: f760 793d 5591 31bd 2903 6dbd 5d0b 913d
000000e0: 4c3a d0b9 1491 cabc 50c8 663d 250e a2bd
000000f0: d3a9 41bd 95dc 2dbd 738b 92bb a200 b03c
00000100: 3225 513d c7fa c93d dc25 743d c2ab 54bd
00000110: 7bd7 ad3d 6d43 283c 9b7a bbbc 366b 1abc
00000120: 0e9a e6bc 3033 253d 7623 ccbd 694d a33b
00000130: 317f ba39 810d 06bd a5f3 123d cc55 663d
00000140: 72ea 82bb f480 9c3d 21d3 963d ee4b b1bd
00000150: 442d 8dbd ac38 09bd 306c d3b9 1f8b cd3c
00000160: b884 7b3b 75b7 70bd 68fa 923d 80fe 32bd
00000170: ef72 863d 32a1 7abc b9ee bd3d 7076 a0bc
00000180: 0b51 28bd 5e9c 2c3d 7255 943d fec0 87bd
00000190: 31e0 7bbd 3f49 e4bc b572 a93d 41ea e83a
000001a0: 1809 9b3d fe0e a5bd 1738 2e3d 5d02 debd
000001b0: 2529 ca39 9ec8 90bc 40a9 693c 5739 adbd
000001c0: 66c2 3fbc 40dc b93d 8ce4 7dbd bbd5 0bbb
000001d0: 8af7 eabc 0b24 c53d 4816 13bd 763a 8d3d
000001e0: 6432 8d3d 7451 bebd 1451 bfbd 3c09 533d
000001f0: 8c33 c23d aca6 d23c e85b c3bc a2b8 89bd
00000200: 2975 8fbd 4e3c 01bd 4871 0f3d e99f 8ebc
00000210: 797e ad3d 6bab 1b3d a2c1 b43d 0780 31bc
00000220: 01a1 623d 16de da3c 7fee 503d 5a35 8b3c
00000230: 745d 8b3d 0d38 b73d cea6 99bb 2ffa ccbc
00000240: b361 b13d d587 8abd decf b0bd 5f80 603d
00000250: 9909 62bd 850b 663d 2722 2dbd b22c bbbd
00000260: 70d2 773d f74f 8d3d 3c78 b4bd 2a04 363d
00000270: 6898 55bd 23b1 8a3d bae4 f73c cedc a5bc
00000280: bdef 993c e599 923d 1142 423d ff09 613d
00000290: 4ca2 5d3b 5f38 52bd e933 6dbd b908 b83d
000002a0: ecf3 c43d 4c8a 7bbc 5b9b 92bb f210 c53c
000002b0: a85c a7bd 9ce9 823d ccbf 903d fa52 753d
000002c0: 746a bf3d f47f b73d a306 3bbd 7a75 5dbd
000002d0: 88ad 8b3d c10f a73d 2a97 b13d 6ed0 b6bd
000002e0: f30e c53d 1865 bdbd 9a90 16bd 0594 acbd
000002f0: 9b7a d13d 91e3 80bd 4d9d 5c3d 6854 a13d
00000300: 9949 31bd eb62 c6bd c984 6abd ae7d aabc
00000310: e85c f13a 5d93 6e3d da46 7ebd f321 dfbc
00000320: 0c3c 7e3a 6763 d3bb 98ba 49bd b3c0 d93d
00000330: 5776 2cbd 2477 033d faec 0dbd 66e3 b7bb
00000340: d625 f5bc f375 3e3d b281 cabc a867 c13d
00000350: 2daa a1bd a9a1 3a3d 34e4 adbd 08b6 97bd
00000360: c145 9c3d 9ec9 fabc 77d0 11bd ef82 a83c
00000370: 2370 98bd 90c6 36bd 6279 3ebd 17ff af39
00000380: 0334 eebc c4dc a5bc 40de 9d39 884b f33a
00000390: e374 393d f587 733d bf43 a23c 4110 45bd
000003a0: 2071 bdbd 5eaa 19bd f603 303c ca89 bc3d
000003b0: 885f 77bd df47 15bd 20b5 c33b ef4e 9b3c
000003c0: f4ee 523c f359 bd3d 1796 943d d1c9 9e3b
000003d0: 4323 babd dfcc 9c3d 101f 2fbd 4656 903d
000003e0: cf60 bbbd 1944 b9bd dead 9bbc a0e7 3abd
000003f0: 3998 2b3d bb69 89bd 0752 be3d 57b6 a43c

encoder.3.bias f4 [32]
0.014915761 0.026397057 -0.0032905443 -0.0038590645 0.06566469 0.0780079 0.014570508 0.035627794
-0.056092378 -0.05322362 -0.036677584 -0.007967595 -0.06650898 0.0011725576 0.0021642165 0.032482862
-0.07646479 -0.062496733 0.01667971 -0.039192595 -0.0104963705 0.015910683 0.014724202 -0.02366104
-0.00771779 -0.01237118 0.00094444014 -0.0032193388 -0.050002974 -0.073208794 0.0042333184 -0.064568564
00000000: 3c61 743c a43e d83c 2ca6 57bb 5ce8 7cbb
00000010: 367b 863d 9bc2 9f3d 24b9 6e3c 73ee 113d
00000020: 1fc1 65bd 0301 5abd 3c3b 16bd 848a 02bc
00000030: dc35 88bd 81b0 993a 87d5 0d3b c00c 053d
00000040: 9299 9cbd 93fc 7fbd e3a3 883c 6a88 20bd
00000050: f8f8 2bbc 1f57 823c c83d 713c ccd4 c1bc
00000060: 84e5 fcbb 7db0 4abc 4e94 773a 8bfb 52bb
00000070: ebcf 4cbd 7eee 95bd a6b7 8a3b 863c 84bd

decoder.0.weight f4 [300, 16]
0.09334629 -0.19321069 -0.23738122 -0.16570413 -0.19110115 0.0019552335 0.03343262 -0.15514837
0.14152503 -0.21294677 -0.12308489 -0.23806183 -0.046363782 0.105936624 0.09725955 0.21409687
0.21038762 -0.15282817 0.28468207 0.19263569 -0.033795696 0.03230641 -0.21383952 0.111927025
0.19743943 0.036504585 -0.11325518 0.13228652 -0.0002513731 -0.16455744 0.07168582 0.24201868
-0.17871991 -0.023904765 0.21989764 0.28725055 0.07632355 -0.14261039 0.15430686 -0.1309904
-0.21522054 0.18895936 -0.28449488 0.19845763 0.026573941 -0.06660476 0.02719213 -0.2169458
-0.26575452 0.19362612 0.035995014 0.18873055 0.111937754 0.07771865 -0.15852852 0.16632055
-0.026627395 -0.08699553 0.10971523 -0.06357494 -0.03534424 -0.15701273 0.08502842 0.17613102
-0.23849729 0.16305913 -0.23729174 0.037872914 -0.03417551 0.18353361 0.24136582 0.18531999
0.07224876 0.19241354 -0.0371869 0.074950874 0.14106901 0.11953518 -0.23367305 -0.28447062
0.22456896 0.15538166 0.26332626 0.023490809 0.0020981587 -0.1889067 0.060867947 0.032819264
-0.14013967 0.15423524 0.055870578 0.24035789 0.1333886 -0.18154518 0.05507595 0.17568226
0.04651654 -0.10396328 -0.26819125 0.12080593 -0.26683053 0.12514672 -0.20078065 -0.095240116
-0.07668599 -0.061113115 -0.029622655 -0.04727367 -0.05897863 0.007656937 0.18036231 0.13951483
-0.092271335 -0.119592346 -0.14170292 0.11497505 -0.08787406 0.092345245 0.22056966 -0.19958994
-0.23163041 0.103891976 0.19023758 0.080201544 -0.07778526 0.2535366 -0.14727801 0.11910741
-0.18392442 0.11891461 -0.012047166 -0.11148193 -0.06464531 0.20349275 -0.14545296 -0.23222056
-0.03743689 -0.21336012 0.05350002 -0.16512401 -0.22218576 0.11005501 0.2727537 -0.07417312
0.09338532 0.18784137 -0.12971328 0.1905704 0.020331679 0.23595388 -0.20197368 -0.14496514
-0.15572688 0.18790136 0.020234425 -0.10549318 0.029888252 0.20962766 -0.04415434 0.08620688
-0.16951966 -0.068563044 0.23652601 0.007023797 -0.03545836 -0.049916707 0.15671444 0.17475477
-0.11377505 -0.031155018 -0.26391804 -0.119636804 0.25785336 0.14823619 -0.0068801395 -0.17153886
0.19569492 0.13243565 0.058808714 0.09157589 0.15067446 -0.27971232 0.2383122 -0.048311695
0.06640009 0.25558642 -0.13235041 -0.11265324 0.17031229 0.032407656 -0.2467183 -0.24926624
-0.019823153 -0.0054265885 -0.15747571 -0.19157703 0.17853795 0.030422408 0.23398103 0.081187285
-0.18096095 -0.11130471 -0.16767545 -0.2109162 0.17747124 0.12643877 -0.004615179 0.111493446
-0.16608942 0.123371676 -0.22420788 0.08230191 -0.0027241006 -0.11215637 0.09249997 0.22894855
-0.24993148 -0.10463864 -0.15291405 -0.09062497 0.19950335 -0.16064624 -0.18368831 -0.2259582
0.14562415 0.009231535 -0.0048615676 0.2878652 -0.15916225 -0.19526163 0.086262986 -0.20136206
-0.2330321 0.07509858 -0.13298789 0.124856874 0.020146444 -0.27294382 0.04839137 -0.043790862
0.0777258 0.17571166 -0.15479356 -0.13824354 0.18071106 -0.11238982 0.055500645 0.13917148
-0.1636775 0.05490467 -0.06292053 -0.03142942 0.2124963 0.061522856 0.06579971 -0.15999745
00000000: 572c bf3d 06d9 45be 1014 73be 58ae 29be
00000010: 05b0 43be 6023 003b a5f0 083d 37df 1ebe
00000020: f0eb 103e b80e 5abe ee13 fcbd 7bc6 73be
00000030: f3e7 3dbd 4df5 d83d 0430 c73d 363c 5b3e
00000040: da6f 573e fd7e 1cbe d9c1 913e 4a42 453e
00000050: 5b6d 0abd ba53 043d bff8 5abe ff39 e53d
00000060: 902d 4a3e d585 153d 55f2 e7bd 1e76 073e
00000070: baca 83b9 bf81 28be 04d0 923d bfd3 773e
00000080: 5a02 37be edd3 c3bc d92c 613e 8112 933e
00000090: 854f 9c3d 7508 12be 9e02 1e3e 5922 06be
000000a0: c662 5cbe 907e 413e 50a9 91be 7a38 4b3e
000000b0: 98b1 d93c 1468 88bd 08c2 de3c 0a27 5ebe
000000c0: fa10 88be ed45 463e 826f 133d 9542 413e
000000d0: 9f3f e53d f52a 9f3d 4d55 22be ef4f 2a3e
000000e0: b221 dabc b62a b2bd 61b2 e03d 9433 82bd
000000f0: 1fc5 10bd f2c7 20be 6123 ae3d b15b 343e
00000100: a238 74be f9f8 263e 9bfc 72be a120 1b3d
00000110: 9ffb 0bbd 3cf0 3b3e 9a28 773e 86c4 3d3e
00000120: 28f7 933d 0e08 453e 4a51 18bd d87f 993d
00000130: 6574 103e dcce f43d fd47 6fbe 22a6 91be
00000140: 68f5 653e 5f1c 1f3e b3d2 863e cc6f c03c
00000150: 4381 093b c270 41be ab50 793d 7e6d 063d
00000160: c680 0fbe d8ef 1d3e 8cd8 643d 6120 763e
00000170: 0597 083e fbe6 39be 5297 613d 0de6 333e
00000180: 2188 3e3d b3ea d4bd 5d50 89be 1969 f73d
00000190: 039e 88be 7626 003e 7199 4dbe 400d c3bd
000001a0: 8b0d 9dbd bf51 7abd 36ab f2bc 09a2 41bd
000001b0: 9393 71bd 0be7 fa3b e6b0 383e fadc 0e3e
000001c0: c1f8 bcbd d5ec f4bd 921a 11be 0a78 eb3d
000001d0: 51f7 b3bd 811f bd3d 03dd 613e 4e61 4cbe
000001e0: 8630 6dbe 51c5 d43d a4cd 423e b540 a43d
000001f0: e14d 9fbd 8dcf 813e 0cd0 16be 96ee f33d
00000200: af56 3cbe 8189 f33d 7a61 45bc a350 e4bd
00000210: c364 84bd 6760 503e 9ff1 14be 3acb 6dbe
00000220: 6d57 19bd 137b 5abe d622 5b3d 4516 29be
00000230: aa84 63be 8564 e13d 5fa6 8b3e 14e8 97bd
00000240: cd40 bf3d 7d59 403e 8fd3 04be e324 433e
00000250: 9f8e a63c e59d 713e 30d2 4ebe be71 14be
00000260: de76 1fbe 3769 403e aac2 a53c cf0c d8bd
00000270: 35d8 f43c a2a8 563e 2edb 34bd 3c8d b03d
00000280: 9096 2dbe c86a 8cbd e033 723e e127 e63b
00000290: c93c 11bd 7675 4cbd c079 203e eaf2 323e
000002a0: e502 e9bd cf38 ffbc 4420 87be 2404 f5bd
000002b0: 5b05 843e 3acb 173e cb72 e1bb e2a7 2fbe
000002c0: 4064 483e 369d 073e 68e1 703d 248c bb3d
000002d0: 684a 1a3e 7436 8fbe 1d08 743e 7ce2 45bd
000002e0: c5fc 873d 39dc 823e de86 07be beb6 e6bd
000002f0: 5866 2e3e e4bd 043d b9a3 7cbe a63f 7fbe
00000300: 2a64 a2bc 86d1 b1bb 5041 21be c52c 44be
00000310: a7d2 363e 6a38 f93c b998 6f3e 8545 a63d
00000320: d44d 39be b9f3 e3bd 1db3 2bbe 6bfa 57be
00000330: 05bb 353e 2a79 013e ed3a 97bb ad56 e43d
00000340: 5813 2abe 4aaa fc3d c096 65be e78d a83d
00000350: d386 32bb 3db2 e5bd a070 bd3d 7d71 6a3e
00000360: 0aee 7fbe c94c d6bd 8095 1cbe 9699 b9bd
00000370: 9b4a 4c3e 7380 24be ca18 3cbe 9661 67be
00000380: 7f1e 153e dd3f 173c c94d 9fbb 1163 933e
00000390: 6efb 22be aaf2 47be a6aa b03d db31 4ebe
000003a0: f89f 6ebe 49cd 993d fa2d 08be f6b4 ff3d
000003b0: 280a a53c 4bbf 8bbe 0736 463d 0c5e 33bd
000003c0: b42e 9f3d c2ed 333e 3482 1ebe b78f 0dbe
000003d0: 520c 393e a22c e6bd a554 633d f882 0e3e
000003e0: 139b 27be b8e3 603d 7bdc 80bd 23bc 00bd
000003f0: a198 593e 64ff 7b3d 00c2 863d 5fd6 23be

decoder.0.bias f4 [300]
0.20053008 0.20634493 -0.10525737 0.03296718 0.10276547 -0.012225168 -0.11551538 0.08962246
0.02051212 -0.11049248 0.06430744 0.03606646 -0.119439855 0.017714323 -0.16210815 0.104571454
0.121418536 -0.07464828 -0.21577695 -0.14152743 -0.20324019 -0.18130246 -0.093164444 -0.018216899
0.22494324 -0.045587327 0.1653431 0.1382595 -0.2268034 0.018240206 -0.019784683 -0.087258704
-0.16681355 -0.16865653 0.024848355 -0.0008515521 0.23052137 0.1784923 -0.08775609 -0.054025
-0.003641262 0.05015587 0.09962781 0.14675127 0.07347523 0.14977819 -0.1923109 -0.05423418
0.13319324 0.0060090064 -0.18153638 0.14202753 -0.17505848 0.06811373 0.038394544 -0.07420993
0.19464277 -0.13687421 -0.21183094 -0.16202223 -0.15457481 0.15302067 0.16835254 -0.21437392
-0.09840965 -0.2213712 -0.22568765 0.26765242 -0.085936174 0.17453627 -0.17415449 -0.08316036
-0.13013259 -0.12419081 0.054918557 -0.041105222 0.11767434 -0.01060385 0.07344742 0.09146254
0.039542142 0.0459037 -0.16811574 -0.02204964 0.11013076 -0.15171055 0.043024138 -0.16672683
0.005834991 -0.14622927 0.17297375 -0.10665343 -0.09697009 -0.082856074 0.16667233 -0.15064602
0.1767304 -0.044883598 0.0442599 -0.15561245 0.05346628 -0.15958464 0.16725683 0.17418621
-0.18208905 -0.026309581 0.09559455 -0.14289102 -0.09002406 0.0417631 -0.21239775 0.09845418
0.054103736 0.17714153 -0.17448919 -0.093499094 -0.015977759 0.16407722 0.2523462 -0.03381381
0.1685427 0.047847025 -0.051817168 -0.0720796 -0.086031675 -0.10860117 0.27440014 -0.0043553333
-0.124689534 0.12653682 -0.14824688 0.10307712 0.17806408 -0.1330558 0.037115116 -0.08732299
0.16067472 0.0637077 0.15530635 0.111733764 0.1675784 0.22620542 -0.26070932 0.0002929662
-0.08032715 -0.026299065 0.106967464 -0.13011451 -0.22742002 -0.07622182 -0.20102826 -0.07802649
-0.116157144 0.13754758 -0.0196216 -0.018073643 -0.119597614 -0.20936088 0.12005323 -0.10646694
-0.0061637624 0.15973623 0.1666946 0.1523401 -0.19845723 -0.0017526855 -0.16105697 0.19070633
-0.112502865 0.17274989 0.10610602 -0.028500149 -0.04642828 -0.18570219 0.038572166 0.14625317
-0.22031112 -0.14753467 -0.053267144 0.22682823 -0.13286382 0.08706342 0.19660576 -0.18140745
-0.14614643 0.07736742 -0.21008469 -0.08246221 0.015830321 -0.0051631047 0.096743084 -0.08853855
-0.16240092 0.22346313 0.21856213 0.24618617 0.033134867 -0.13738476 -0.036379952 0.07225034
0.038766526 -0.102247044 -0.19462912 0.15060218 -0.105629794 -0.20171809 0.072338246 0.13015883
-0.13328592 -0.13227175 0.17806491 0.0058743837 0.04530953 0.23894192 0.20468022 0.21085797
-0.16782437 0.2260904 0.14873917 0.15584671 -0.14063977 -0.1327123 -0.15980306 -0.17100295
-0.105003044 -0.05028403 0.12820728 -0.17783903 0.23594134 -0.037200067 0.021514926 -0.15262963
0.14002715 0.08053829 -0.100508526 0.25066847 0.13188522 0.074126445 -0.049695533 -0.2270121
0.018717581 -0.16458358 -0.18370861 -0.06741138 0.07410178 -0.20533174 -0.14222974 -0.18766831
0.1336282 0.18112321 0.14720878 -0.09152671 -0.014049176 -0.070798874 0.21229506 -0.20317717
00000000: c257 4d3e 164c 533e 2d91 d7bd 9808 073d
00000010: b476 d23d 124c 48bc 5493 ecbd fb8b b73d
00000020: 0909 a83c e249 e2bd 9eb3 833d 6dba 133d
00000030: e29c f4bd a11d 913c aeff 25be 8f29 d63d
00000040: 48aa f83d 33e1 98bd a2f4 5cbe 91ec 10be
00000050: 321e 50be 5aa7 39be 00cd bebd 9b3b 95bc
00000060: 8557 663e c7b9 3abd b44f 293e e693 0d3e
00000070: 273f 68be 7c6c 953c 7d13 a2bc b1b4 b2bd
00000080: 2cd1 2abe 4cb4 2cbe c78e cb3c b23a 5fba
00000090: cb0d 6c3e afc6 363e 77b9 b3bd 5249 5dbd
000000a0: 3da2 6ebb 3e70 4d3d aa09 cc3d f745 163e
000000b0: 2e7a 963d 745f 193e 26ed 44be a924 5ebd
000000c0: cf63 083e 33e7 c43b ace4 39be aa6f 113e
000000d0: 8842 33be 367f 8b3d 9943 1d3d 60fb 97bd
000000e0: 6f50 473e c128 0cbe 36ea 58be 28e9 25be
000000f0: dc48 1ebe 73b1 1c3e 9c64 2c3e d684 5bbe
00000100: 008b c9bd 22af 62be aa1a 67be bd09 893e
00000110: 4eff afbd a3b9 323e 8e55 32be fb4f aabd
00000120: 7a41 05be c057 febd 48f2 603d f35d 28bd
00000130: 3fff f03d c5bb 2dbc 9a6b 963d b650 bb3d
00000140: f1f6 213d 8505 3c3d 8826 2cbe 72a1 b4bc
00000150: 3c8c e13d 035a 1bbe 143a 303d 70ba 2abe
00000160: 7433 bf3b 20bd 15be 0820 313e 1d6d dabd
00000170: 4198 c6bd 72b0 a9bd 27ac 2a3e f342 1abe
00000180: d0f8 343e ddd7 37bd de49 353d df58 1fbe
00000190: 75ff 5a3d 286a 23be 6045 2b3e df5d 323e
000001a0: 8d75 3abe 3187 d7bc 13c7 c33d 0652 12be
000001b0: 895e b8bd c90f 2b3d cc7e 59be 58a2 c93d
000001c0: e19b 5d3d 9764 353e 4bad 32be 747c bfbd
000001d0: cae3 82bc dc03 283e 8533 813e 5a80 0abd
000001e0: 7596 2c3e 3efb 433d 3d3e 54bd 789e 93bd
000001f0: 6031 b0bd 4a6a debd 2d7e 8c3e 2fb7 8ebb
00000200: 3a5d ffbd de92 013e 08ce 17be 191a d33d
00000210: 6e56 363e c83f 08be 0506 183d 65d6 b2bd
00000220: ea87 243e 2f79 823d a108 1f3e acd4 e43d
00000230: ac99 2b3e 65a2 673e b17b 85be 4299 9939
00000240: 9082 a4bd 2371 d7bc c211 db3d bd3c 05be
00000250: cbe0 68be 301a 9cbd 5ada 4dbe 5acc 9fbd
00000260: cce3 edbd 46d9 0c3e 7abd a0bc 2d0f 94bc
00000270: 98ef f4bd b362 56be 78de f53d 570b dabd
00000280: 63f9 c9bb e591 233e fdb1 2a3e 0bff 1b3e
00000290: 5f38 4bbe 5eba e5ba 1eec 24be 8548 433e
000002a0: e767 e6bd 59e5 303e 1d4e d93d 2579 e9bc
000002b0: 952b 3ebd b728 3ebe d9fd 1d3d 64c3 153e
000002c0: 3d99 61be 5413 17be a62e 5abd a945 683e
000002d0: 740d 08be 4e4e b23d 0553 493e e0c2 39be
000002e0: 69a7 15be cf72 9e3d 7120 57be f2e1 a8bd
000002f0: 97ae 813c 432f a9bb 3d21 c63d b353 b5bd
00000300: 6d4c 26be 85d3 643e c0ce 5f3e 3a18 7c3e
00000310: 6db8 073d 97ae 0cbe 2503 15bd fcf7 933d
00000320: a6c9 1e3d e666 d1bd db4c 47be 7537 1a3e
00000330: 6f54 d8bd 308f 4ebe 1326 943d 5b48 053e
00000340: 1b7c 08be 3f72 07be a656 363e e77d c03b
00000350: 7c96 393d 31ad 743e b197 513e 27eb 573e
00000360: 27da 2bbe 3e84 673e 154f 183e 4896 1f3e
00000370: df03 10be bce5 07be 6aa3 23be 661b 2fbe
00000380: d60b d7bd a1f6 4dbd c548 033e 6f1b 36be
00000390: 9b9a 713e 195f 18bd 1240 b03c f14a 1cbe
000003a0: 4763 0f3e 42f1 a43d 6ad7 cdbd 9e57 803e
000003b0: eb0c 073e 9bcf 973d 8b8d 4bbd dc75 68be
000003c0: 9d55 993c 9988 28be 1c1e 3cbe fa0e 8abd
000003d0: adc2 973d 7c42 52be aca4 11be 1f2c 40be
000003e0: d5d5 083e 5d78 393e e6bd 163e 5b72 bbbd
000003f0: 842e 66bc 00ff 90bd e063 593e ad0d 50be

decoder.2.weight f4 [50, 300]
-0.05834123 0.039395127 0.012859777 0.028284568 0.03501275 0.07242608 0.010858256 -0.05811718
-0.022873443 -0.061255112 0.013738019 0.02241073 -0.010716572 -0.04581006 -0.004585491 -0.034624334
0.0595924 -0.03958355 0.035669737 -0.021507446 0.06452804 -0.092870735 -0.050401583 -0.0057450277
-0.0054984223 -0.015997289 -0.00562623 0.048883006 -0.015911452 0.06579176 -0.008991911 0.020084444
0.05493798 0.023685746 -0.023458788 0.027771138 0.021594299 0.045310978 0.0004031413 0.052830637
0.043248918 -0.013634834 -0.06273286 0.02856223 -0.06412958 -0.02306389 0.03690193 -0.013213465
-0.002725556 0.00054171454 0.0060664024 -0.058737166 -0.023693651 0.05292969 -0.005551939 -0.0053466596
0.017951975 -0.038886458 0.016232979 -0.07171012 -0.0062306295 0.008841535 0.026363011 -0.021422401
0.006771377 0.039061643 0.006288406 0.026368527 -0.018181294 0.026970277 0.024538198 -0.07406942
0.09827771 0.041078016 -0.050355215 0.06318408 0.0682964 0.0032494043 0.034801744 0.019589117
0.040051382 0.019895997 -0.0474442 0.02420112 0.022407176 -0.020122906 0.07659298 -0.033874474
-0.07478376 -0.0067114946 -0.036139593 -0.045875266 -0.03788155 0.040110108 -0.024619564 0.03415565
0.0057116025 -0.047628116 -0.037041564 0.064616896 -0.0007337892 -0.031820722 -0.06200023 0.04909259
0.05608621 0.046991017 -0.0486758 0.015248357 -0.007790228 -0.06761277 0.086579666 -0.05648392
0.06421073 0.039193086 0.053945057 -0.03788071 0.038732033 -0.012478761 -0.032727588 -0.05931479
-0.019457093 0.016746862 -0.03222176 -0.053107623 -0.039346945 -0.014824365 -0.06612043 -0.005812642
-0.05730626 -0.03126053 -0.023889966 -0.05068557 -0.053658366 0.065142766 -0.03623118 0.063270904
-0.008016617 -0.08467778 0.010861578 0.0009097086 -0.023058074 0.003208216 0.0011847932 -0.05655971
-0.09738337 0.0135550555 0.028593015 -0.0023511774 -0.007474599 0.061903037 -0.03708772 -0.034897663
-0.0038340036 0.066990286 -0.017189465 -0.07759212 -0.032849204 0.023093803 -0.008625746 -0.0072137057
-0.022513477 -0.007098008 -0.04007698 0.034935534 -0.062259033 0.071617916 -0.052291516 -0.05731677
-0.07360931 -0.040737573 -0.046942774 -0.05056975 -0.044699345 0.008801996 0.07432441 0.026784949
-0.038212404 0.011820899 0.009898459 0.024504948 0.06578906 0.015237307 -0.03927631 0.043595262
0.028171029 0.025174648 -0.040912725 0.008954608 -0.05767705 0.030641558 -0.024366237 0.057238437
0.030848451 -0.0032257636 -0.0509284 -0.08092661 0.073860005 0.0059643984 0.041777533 0.011553752
-0.02653868 0.08171335 -0.015498034 0.008851624 0.06735315 0.06325714 -0.01205799 0.07516254
0.017884338 -0.028245516 -0.004316769 0.037776705 -0.010036958 0.00997742 0.026738118 0.011955925
0.08881013 -0.00647062 -0.031408872 0.07858677 -0.014291669 0.041294318 -0.009924811 0.010649002
-0.051381312 0.030480672 0.033812765 0.051205058 0.016965017 0.0008366979 -0.011638411 0.025479006
-0.050286815 0.0144109465 -0.04294503 -0.013290485 -0.029259726 0.021548208 -0.044484023 -0.037180144
0.080725916 0.023448974 0.068100564 0.058723845 -0.050160028 0.0036897648 0.04717828 0.02199425
-0.07183605 0.040637128 0.010160517 0.01686392 -0.030066017 7.729932e-05 0.0021675443 -0.035852846
00000000: 37f7 6ebd c95c 213d d0b1 523c 0ab5 e73c
00000010: 8869 0f3d 2054 943d d4e6 313c 480c 6ebd
00000020: 1661 bbbc a4e6 7abd 6e15 613c b596 b73c
00000030: 9094 2fbc 54a3 3bbd e341 96bb 3fd2 0dbd
00000040: 2917 743d 5c22 22bd 6e1a 123d 6230 b0bc
00000050: 4727 843d 0333 bebd e471 4ebd c940 bcbb
00000060: 1c2c b4bb bf0c 83bc 3d5c b8bb 8c39 483d
00000070: bc58 82bc d5bd 863d cf52 13bc 2288 a43c
00000080: a606 613d 9c08 c23c a52c c0bc 4c80 e33c
00000090: 87e6 b03c 0198 393d b65c d339 f064 583d
000000a0: c725 313d a464 5fbc 167a 80bd 56fb e93c
000000b0: 5f56 83bd 7cf0 bcbc 7a26 173d 4a7d 58bc
000000c0: 3e9f 32bb d901 0e3a acc8 c63b 6296 70bd
000000d0: 3019 c2bc cdcc 583d 0aed b5bb 0833 afbb
000000e0: 0510 933c 6847 1fbd 06fb 843c c1dc 92bd
000000f0: 4f2a ccbb 16dc 103c 3ef7 d73c 087e afbc
00000100: 6de2 dd3b 1aff 1f3d f90e ce3b cf02 d83c
00000110: f0f0 94bc c5f0 dc3c 5504 c93c b5b1 97bd
00000120: d345 c93d 6c41 283d 4541 4ebd a866 813d
00000130: fcde 8b3d f5f3 543b 468c 0e3d 5b79 a03c
00000140: eb0c 243d eefc a23c d954 42bd 6d41 c63c
00000150: 418f b73c cbd8 a4bc c8dc 9c3d f6bf 0abd
00000160: 3a28 99bd 19ec dbbb 1c07 14bd b4e7 3bbd
00000170: af29 1bbd 7f4a 243d f8ae c9bc cbe6 0b3d
00000180: 6528 bb3b b315 43bd e5b8 17bd dd55 843d
00000190: c25b 40ba 7256 02bd f4f3 7dbd 5015 493d
000001a0: a7ba 653d a779 403d 4760 47bd 3fd4 793c
000001b0: 2b45 ffbb 9078 8abd ae50 b13d af5b 67bd
000001c0: ea80 833d ee88 203d 7ef5 5c3d ce28 1bbd
000001d0: 7ba5 1e3d b873 4cbc 5d0d 06bd 11f4 72bd
000001e0: 7b64 9fbc b730 893c f7fa 03bd 6187 59bd
000001f0: 432a 21bd e5e1 72bc 266a 87bd fa77 bebb
00000200: f8b9 6abd 0b0b 00bd e4b4 c3bc ac9b 4fbd
00000210: e0c8 5bbd 9269 853d 2567 14bd 2d94 813d
00000220: 2158 03bc 8b6b adbd c3f4 313c 8379 6e3a
00000230: 49e4 bcbc ef40 523b 104b 9b3a 28ab 67bd
00000240: ef70 c7bd 0616 5e3c e63b ea3c 3616 1abb
00000250: 7bed f4bb 0a8e 7d3d 4be9 17bd daf0 0ebd
00000260: e843 7bbb 3432 893d ecd0 8cbc 9ee8 9ebd
00000270: e38c 06bd 372f bd3c 0053 0dbc f360 ecbb
00000280: 2f6e b8bc 6896 e8bb c227 24bd 9018 0f3d
00000290: 5403 7fbd 6aac 923d a12f 56bd fdc4 6abd
000002a0: 7ac0 96bd 71dc 26bd 1147 40bd 3a22 4fbd
000002b0: a916 37bd 3f36 103c 6537 983d 1c6c db3c
000002c0: 9c84 1cbd 72ac 413c 252d 223c 9abe c83c
000002d0: 6abc 863d e6a5 793c 32e0 20bd f290 323d
000002e0: eec6 e63c 103b ce3c 1a94 27bd 59b6 123c
000002f0: c53e 6cbd 0104 fb3c b49b c7bc da72 6a3d
00000300: e4b5 fc3c 5567 53bb 4c9a 50bd dabc a5bd
00000310: ea43 973d 0071 c33b eb1e 2b3d f34b 3d3c
00000320: a567 d9bc 5459 a73d 77eb 7dbc 6706 113c
00000330: 73f0 893d f68c 813d e08e 45bc d1ee 993d
00000340: 2d82 923c 2463 e7bc af73 8dbb bfbb 1a3d
00000350: 0e72 24bc 5578 233c e609 db3c c9e2 433c
00000360: 16e2 b53d 7f07 d4bb 97a6 00bd 1af2 a03d
00000370: 9b27 6abc 3b24 293d ad9b 22bc 2779 2e3c
00000380: 3675 52bd 9ab2 f93c 417f 0a3d 65bc 513d
00000390: 38fa 8a3c d855 5b3a 09af 3ebc 59b9 d03c
000003a0: 8cf9 4dbd e41b 6c3c 21e7 2fbd 56c0 59bc
000003b0: 18b2 efbc de85 b03c e134 36bd 354a 18bd
000003c0: a153 a53d 1018 c03c 4f78 8b3d 6a88 703d
000003d0: 9a74 4dbd fbcf 713b 033e 413d 492d b43c
000003e0: c71e 93bd 1e73 263d 4c78 263c 3426 8a3c
000003f0: 024d f6bc c21b a238 5c0d 0e3b 6fda 12bd

decoder.2.bias f4 [50]
-0.05136695 0.007796858 0.04837934 0.037148986 0.017523818 0.012873112 -0.04332176 0.016678492
-0.006143936 -0.035925522 -0.051364478 0.07270829 -0.029537989 -0.048357695 0.044821084 0.013390246
-0.04065957 0.04328515 0.03291681 -0.019722546 0.038477894 -0.0355244 0.05088374 0.05243461
-0.015634302 -0.0028914807 0.06817271 0.025544977 -0.047511 0.026758408 -0.019413298 -0.03844605
-0.019974653 -0.03206878 0.056533158 0.04796509 0.009020556 -0.037046917 0.016217265 0.05447373
-0.0047169835 0.028153557 -0.022820894 -0.03435487 0.025903953 0.026487999 -0.04578977 0.05988027
0.00103454 0.017416613
00000000: 2766 52bd c97c ff3b 6a29 463d 8929 183d
00000010: 1c8e 8f3c bfe9 523c 2872 31bd 55a1 883c
00000020: 1253 c9bb a426 13bd 8f63 52bd 15e8 943d
00000030: a7f9 f1bc b812 46bd 5096 373d c362 5b3c
00000040: a68a 26bd c54b 313d c7d3 063d 2d91 a1bc
00000050: ff9a 1d3d 0982 11bd 786b 503d acc5 563d
00000060: 8213 80bc ff7e 3dbb 229e 8b3d b343 d13c
00000070: e59a 42bd 7334 db3c a308 9fbc 9b79 1dbd
00000080: e2a1 a3bc 8e5a 03bd 508f 673d 0b77 443d
00000090: f4ca 133c 82be 17bd 12da 843c d91f 5f3d
000000a0: ed90 9abb 4aa2 e63c e2f2 babc b1b7 0cbd
000000b0: 8734 d43c 5cfd d83c 0e8e 3bbd 0445 753d
000000c0: 6799 873a 49ad 8e3c
